model.tflite (tflite, 328320 bytes, 12 tensors)

dense_2/bias f4 [10]
000000 d6 b1 80 3c 49 8c 84 3d 05 11 0f bd 25 91 cd 3d
       0.015709799 0.0647207 -0.03492834 0.1003745
000010 28 96 f1 bc 22 51 e3 3c bb ec fe b9 0a 8f 68 bd
       -0.029490545 0.027748648 -0.00048623033 -0.056777038
000020 6b 73 24 3d 07 fc ed bd
       0.040149134 -0.11620336

dense_1/bias f4 [32]
000000 92 8a 8c 3d 82 86 67 bc d2 99 b6 3d 6b cf e2 3d
       0.06862368 -0.01413119 0.08916058 0.11074718
000010 e2 11 13 3d aa cd 6c bd 51 c0 00 3e ba 54 9f 38
       0.035905726 -0.057813324 0.12573363 7.5974924e-05
000020 1d 43 5f 3d ac f7 3d bd 09 74 3d 3d 62 62 f0 bc
       0.054507364 -0.046378776 0.046253238 -0.029343788
000030 a6 fb ce bb 1a 5f 55 3d 09 1e 31 bd df a2 2f 3c
       -0.00631662 0.05209265 -0.043241534 0.010719984
000040 71 9b 1d bd e3 48 2e bd 04 82 b2 bb 01 2e 7d bc
       -0.03847832 -0.04254998 -0.005447628 -0.015452863
000050 32 51 f6 3d cd dc 8c 3b 52 cb 06 3d 7a 7b 0f bd
       0.120272055 0.0042987824 0.032908745 -0.035029866
000060 11 6d cd 3c d8 f7 84 3c e8 ab 0d bd 52 d2 5e bc
       0.025076421 0.016231462 -0.03458777 -0.013599949
000070 6c 8e 08 bd ca ee 16 bd 2a 39 72 3d 76 d1 0b 3c
       -0.03333895 -0.03684882 0.059136547 0.008533826

dense/bias f4 [64]
000000 1d 41 8f 3b 66 f8 44 3d ae a3 00 bd 26 ce 8d 3d
       0.004371776 0.048088454 -0.031406097 0.06924085
000010 0f e7 30 bd 1b b4 08 3d a5 84 04 bd 4f f9 63 3c
       -0.043189105 0.033374887 -0.032353062 0.01391442
000020 87 d0 c1 bc d5 7d b8 3d c1 e3 57 bb 43 66 be 3c
       -0.023659004 0.090083756 -0.0032942148 0.023242122
000030 af 46 7e b9 a3 c8 5a bc 0c d7 12 3c 9b d5 8f bd
       -0.0002424966 -0.0133535 0.008962404 -0.07023164
000040 5a 6a 32 bd f2 46 68 bc dd d5 c1 3c b1 3d ef 3a
       -0.043558456 -0.014177071 0.023661548 0.0018252638
000050 90 d1 58 bd 86 e8 99 3d e5 d1 aa 3c e5 cc d9 3c
       -0.05293423 0.075150535 0.020852039 0.02658696
000060 ea bf 4e bd b8 67 a2 bc 7e 0c 0d 3e c8 94 02 3e
       -0.050475992 -0.019824848 0.13774297 0.12752068
000070 62 3b d8 3c f6 f7 87 bb f5 33 ec ba 7f ae a0 3d
       0.026395503 -0.0041494323 -0.0018020855 0.078457825
000080 36 0f 37 3c 99 0d db 3d 2b 9c 83 bc e1 95 de bc
       0.01117306 0.10695953 -0.016065678 -0.027171077
000090 98 3c 4e 3c a2 cc 9b 3d 2e b4 3a bc e2 67 9f 3c
       0.012587689 0.0760739 -0.011395497 0.019458715
0000a0 e8 5f be 3d c1 71 4d 3d 4c 15 b4 bc 9c db b0 bc
       0.092956364 0.050157312 -0.021982811 -0.021589093
0000b0 c4 d8 44 bd 47 29 60 3d 7f 07 14 bd 43 b2 b7 bb
       -0.048058286 0.054726865 -0.03613996 -0.0056059672
0000c0 d3 46 43 3d fb ab 7f 3d 60 8c 06 3c aa 80 72 bd
       0.047674965 0.062419873 0.008212179 -0.059204735
0000d0 65 ba 9b 3d 49 30 70 3d 84 37 74 3d 8b 6e 1d bd
       0.07603911 0.0586398 0.059623256 -0.0384355
0000e0 ce f6 12 3e 75 60 04 bd 87 0a 50 bd 5d 0d 67 bd
       0.14351961 -0.03231855 -0.05079129 -0.05640923
0000f0 ae 0f 8d 3d 38 75 9e 3b 30 c7 e3 bc 43 5b 1a 3d
       0.06887756 0.004835751 -0.027804941 0.03768469

conv2d_2/bias f4 [64]
000000 c2 bd a1 bd 92 cd 97 bd ab f9 1c bd 69 cb 4d 3d
       -0.078975216 -0.07412256 -0.03832404 0.050242815
000010 91 4f 4b bd 15 24 f6 3d e0 36 08 bd 23 6e 80 3d
       -0.049636427 0.12018601 -0.033255458 0.06271007
000020 fa 6a 92 bd 98 89 13 3d 0d 27 0d bc bc 94 03 3d
       -0.071493104 0.03601989 -0.008615267 0.032124266
000030 3f 2c 96 bd e8 0b 0a bd 85 97 89 bd 50 98 83 3d
       -0.07332658 -0.03370276 -0.06718353 0.06425536
000040 be f2 3d 3d db 67 58 bd 1f 5b f5 bc 50 59 6c 3c
       0.046374075 -0.05283342 -0.029950676 0.014425591
000050 c4 61 18 bc c2 5e f5 bc 55 26 55 bb 70 f8 4f 3d
       -0.009300653 -0.02995241 -0.0032524068 0.050774038
000060 99 74 e0 bc ff 68 2e bd 5f 24 03 bd a9 34 30 3c
       -0.027399348 -0.0425806 -0.032017108 0.010754743
000070 c2 69 e4 bb cc 39 3e 3b ca dd a8 3d 16 2b 83 bc
       -0.006970615 0.002902615 0.08245428 -0.016011756
000080 13 70 87 bc 89 95 45 3c 14 7b 33 3d 6a 26 93 bb
       -0.016532933 0.012059578 0.04381855 -0.0044906633
000090 10 ef bc 3b 53 dd 16 bd 05 76 3a 3c cc 92 eb 3c
       0.005765803 -0.036832165 0.011380677 0.028756522
0000a0 53 af 9d bd f8 b2 e5 bc d8 97 aa bd 97 85 5e bc
       -0.07699456 -0.02803944 -0.08329743 -0.013581655
0000b0 b0 77 4c 3c dd fd e1 3b fe b8 ad bc 68 fb 9c bb
       0.012479708 0.006896718 -0.021206375 -0.004790712
0000c0 7f 0d d9 bb 9f 57 05 bb 45 93 2a bd 50 a5 12 bd
       -0.0066239233 -0.0020346416 -0.041644353 -0.035802186
0000d0 99 56 e3 3b 95 e5 ad 3c ff 5c 20 3d d6 78 7e bc
       0.0069378135 0.021227637 0.039151188 -0.015531739
0000e0 14 f2 9c bb 00 6f 32 3d c8 ba 3c bd 21 89 a5 bd
       -0.0047896 0.04356289 -0.046076566 -0.08082796
0000f0 49 40 46 bc 42 2d ab 3b fe 9f 2d bd b0 69 c1 bc
       -0.012100288 0.005223901 -0.04238891 -0.023609966

conv2d_1/bias f4 [64]
000000 ba 74 3e 3d f6 c6 13 39 cf 09 9c bd ca ec c9 3d
       0.046498038 0.00014093131 -0.07619058 0.09859617
000010 6b d6 2e bb 34 42 b2 3c d9 96 e4 bb 7c 6d 04 bd
       -0.0026678096 0.021760084 -0.0069759903 -0.032330975
000020 7e 56 5f bc 37 ae 72 bc 3b 65 63 bc e7 5c 2a 3d
       -0.013631461 -0.014812044 -0.013879116 0.041592505
000030 77 86 2b bc fb c6 1f bc de 4d 41 3c cc fd 8b bc
       -0.010469071 -0.0097520305 0.01179835 -0.017088793
000040 be 5a 89 bc a8 54 c9 bc e7 12 3b bc 21 b3 c3 bb
       -0.016766902 -0.0245765 -0.011418081 -0.0059722816
000050 55 4f 80 bc e3 3c 39 3d ae bf 43 bc ec 72 0b 3d
       -0.015662828 0.04522408 -0.0119475555 0.034045145
000060 97 31 71 bd 52 88 2b bc b6 3a 9b bc cc 2a 25 bc
       -0.058885183 -0.010469513 -0.018948894 -0.010081004
000070 71 89 4e 3c f2 d4 a8 bc 39 15 41 bd aa 5c 62 3d
       0.012606011 -0.020609353 -0.04713938 0.055264153
000080 d6 d0 03 bc 27 3c fe bc a5 1b 7f ba 8e 52 a9 bb
       -0.008045396 -0.031034542 -0.00097315974 -0.005167312
000090 39 80 ac bc f1 9a e4 bc c3 0e 78 bb 71 8e 03 bd
       -0.021057235 -0.027905913 -0.0037850596 -0.032118265
0000a0 bf a7 90 3d 27 19 85 bd 00 b3 67 bd 94 e4 92 3c
       0.07063245 -0.06498938 -0.056567192 0.01793126
0000b0 d0 88 d6 3c 37 66 25 bb c4 b4 a4 bb 9e 9b 7e bc
       0.026188284 -0.0025237927 -0.0050264318 -0.015540032
0000c0 8d 8c 7d 3c ea 42 58 bd 07 82 15 3d af d1 31 3c
       0.015475404 -0.05279819 0.036500957 0.010853215
0000d0 ee 41 be 3b d5 e9 3a bb 42 d5 3e 3b 3f df 90 bd
       0.0058061993 -0.0028520722 0.002911881 -0.07073831
0000e0 11 45 c0 bc 1a 1e 8c 3c 7e ca e6 bd fe ea f9 bc
       -0.023470433 0.017104197 -0.11269091 -0.03050756
0000f0 ff 34 92 bc 62 80 7e bd 46 97 c8 bc b9 a7 2a 3b
       -0.017847536 -0.062134154 -0.024486195 0.0026039912

conv2d/bias f4 [64]
000000 0d 17 0f bc 45 ef 3f 3e 3d f0 d3 bb a2 32 54 bb
       -0.008733523 0.18743618 -0.0064678476 -0.0032378812
000010 4c 72 d5 bb 30 1e 9e bc fd 35 58 3d f1 28 40 3e
       -0.0065138694 -0.019301504 0.052785862 0.18765618
000020 21 2c 2f bc cd 1f d2 bc b4 7a 5c bc 09 26 97 bc
       -0.0106916735 -0.02564993 -0.013456989 -0.018450754
000030 42 6a 13 bd 6a 6e 4c 39 bd d7 4e 3d fa b4 f6 bc
       -0.035990007 0.00019496088 0.050498713 -0.030115593
000040 a1 ab d9 bb af 52 bf bc 2a 65 c3 3c de 91 84 3d
       -0.006642774 -0.023354856 0.02385195 0.064731345
000050 74 ca 48 3c 10 03 92 bc ff 97 10 bb 83 f6 f0 bc
       0.0122553 -0.017823726 -0.0022063253 -0.029414421
000060 3d 72 a6 bc 8a e9 16 bd 98 9e db bc 94 cf 85 bc
       -0.020318145 -0.036843814 -0.026809022 -0.016334333
000070 1e 62 05 bc 36 d5 44 bc d3 8c 80 3c 2e a6 5e bc
       -0.008141069 -0.012013724 0.01569215 -0.013589425
000080 44 99 e4 ba 78 55 ad bc be 9a b3 bc 42 e8 ad bb
       -0.0017440696 -0.021158919 -0.021924373 -0.0053072283
000090 d0 52 c4 bb d5 d7 31 bb 13 2e f8 3d 2a ab b6 bc
       -0.0059913173 -0.0027136703 0.12118163 -0.022298414
0000a0 49 0b 17 bb e0 df b1 bc 58 2d 6e 3d ef 78 c5 bb
       -0.0023047498 -0.021713197 0.058148712 -0.0060263793
0000b0 6e 91 56 3c 8f 68 e7 3d 36 69 b2 38 e4 88 74 bb
       0.013096197 0.1129924 8.5072985e-05 -0.0037313038
0000c0 db 9e 33 bd 34 9c ba bc 21 a4 80 3d 4d 69 5b bc
       -0.04385267 -0.022779562 0.06281305 -0.013391805
0000d0 7f 08 76 3d cb dd ab bb 0b 19 04 3d 54 6c 38 3e
       0.060066696 -0.0052449456 0.032250445 0.18010074
0000e0 dc 9c 82 bc a2 11 cf bc 8d 07 ab bc bf 34 8f bc
       -0.015943937 -0.025276963 -0.020877624 -0.017481206
0000f0 16 04 33 bd 42 a5 e8 ba 10 cc 8c bc 12 59 c4 ba
       -0.04370507 -0.0017749446 -0.017187148 -0.0014980158

sequential/dense/MatMul f4 [64, 64]
000000 10 b1 91 3e f6 d3 30 bd 7f 00 cd 3c 12 1d 25 3d
       0.284554 -0.04317089 0.02502465 0.040310927
000010 95 51 d8 bc 50 59 41 3e d9 6e 15 be a8 6e 03 3e
       -0.026406089 0.18881726 -0.14593066 0.12835181
000020 da ac b8 3d ff 6f a6 3d b7 11 b6 bc 84 47 b3 bd
       0.09017344 0.0812683 -0.022225244 -0.08753875
000030 ea 36 7a bc 1e e6 29 be 2b a1 40 bd 34 c9 05 be
       -0.015271882 -0.16591689 -0.0470287 -0.13065034
000040 10 70 7d 3e 44 74 77 be 09 e1 1b 3d ef ba d6 3d
       0.2474978 -0.24165446 0.038056407 0.104848735
000050 57 bf 87 3e f8 81 9f 3e b9 2c 0e be 10 47 21 be
       0.26513168 0.31153846 -0.13884248 -0.15749764
000060 7e b7 5c be d3 d9 2f be 55 d1 76 3d 4a db 84 3e
       -0.21554372 -0.17172937 0.06025823 0.25948554
000070 3b a6 f1 3d 7d 59 ee bd d2 83 43 be 4b af 08 3e
       0.11799284 -0.11638162 -0.19093254 0.13348119
000080 c4 2b 9e 3d d9 07 29 be f5 b5 96 3e 09 d0 13 be
       0.077231914 -0.165069 0.29435697 -0.14434828
000090 67 0c 27 be 10 c9 9a 3e 6d 1a f8 bd ce b0 5c be
       -0.16313325 0.30231524 -0.12114415 -0.2155182
0000a0 49 7a 84 3e 6b d3 52 3e f2 89 38 3e 21 76 cb bd
       0.25874546 0.20588462 0.18021372 -0.09934641
0000b0 ea 1d 8b 3e d9 4f 00 3e 46 51 af bd f0 f4 15 be
       0.2717126 0.1253046 -0.085604236 -0.14644217
0000c0 45 9e 19 3e e7 c1 7e 3e c1 ee 4e bc 74 db 6b 3d
       0.15001781 0.24878655 -0.012630166 0.057582334
0000d0 eb d5 91 3d 0b 20 a1 3d d1 9f ca bd 5e 92 24 3e
       0.0712088 0.0786744 -0.09893764 0.1607146
0000e0 55 f8 39 be 81 0b 4e be 7f 98 66 3e 16 19 c3 3a
       -0.18161137 -0.20121576 0.2251911 0.0014884796
0000f0 5e 42 44 be 26 f6 26 bd f4 a3 e6 bd b1 9e 51 3e
       -0.19165942 -0.04076209 -0.1126174 0.20470692
000100 38 ac 60 bc 70 6d 0d be e4 7a ab 3d 79 21 31 be
       -0.013712935 -0.13811278 0.08373049 -0.17297925
000110 9f 2a cb 3d 96 d4 31 3e c6 e6 6d 3e 7c 2d 8c 3e
       0.09920239 0.17366251 0.23232564 0.27378452
000120 b8 c3 74 bb 22 d4 89 bd 58 7b d4 3d 71 6d 8a 3e
       -0.0037348103 -0.06729914 0.103750885 0.27036622
000130 61 f9 98 3e 0b 59 f2 bd ea 2b 4c 3d cf 9a 69 be
       0.2987776 -0.1183339 0.049846567 -0.22812961
000140 03 1a 04 bd e3 a9 51 3e c8 75 11 3e d0 ad 06 3d
       -0.03225137 0.20474963 0.14205086 0.032880604
000150 80 e9 4b 3e 6f e2 9d bb ae d6 ba 3d 97 0d b0 bd
       0.19913292 -0.0048182528 0.09122978 -0.08596342
000160 24 d4 ac bd 5e 4e 9b bd 62 79 38 3e e7 9b d6 3d
       -0.084389 -0.07583307 0.18015054 0.10478955
000170 66 ae 15 be 31 17 e9 bc c2 07 db 3a d0 71 2a bd
       -0.14617309 -0.028453441 0.0016710686 -0.041612446
000180 f5 6d 9b 3d 44 af 96 3d 74 39 73 be e3 74 8a 3d
       0.07589332 0.07357648 -0.23752385 0.067605756
000190 da 97 ed 3d ad 55 eb 3d d4 7c 05 be b0 48 77 3e
       0.11601229 0.11490951 -0.130359 0.24148822
0001a0 6e 85 80 3d 6a 63 97 bd 47 12 24 3e 4f 59 91 bb
       0.0627545 -0.073920086 0.16022597 -0.0044356952
0001b0 20 3e 80 bc cb 8f 31 be 30 2f f4 bd df e8 4a 3e
       -0.015654624 -0.17340009 -0.11923063 0.19815396
0001c0 f0 83 5c 3e cb 2f 09 be 0c 84 e7 bd d6 21 a1 3d
       0.21534705 -0.13397138 -0.11304483 0.07867782
0001d0 31 31 31 be 86 d3 c4 3c d0 ed c0 bc f1 9e bb 3d
       -0.17303921 0.024026643 -0.023550898 0.09161175
0001e0 3d d4 9e 3d 85 0a 32 3e a5 aa a4 3d 4f d9 8b 3e
       0.07755325 0.17386825 0.0804036 0.2731423
0001f0 a6 80 65 3e f4 e9 b8 3d 10 fe 43 bc d0 ed 1b bd
       0.22412357 0.09028998 -0.011962429 -0.038068593
000200 e7 02 92 3c 92 b8 57 bd 87 e0 0e be 3e 6d 25 be
       0.01782365 -0.052666254 -0.13952838 -0.16154954
000210 a8 f8 dc 3c 53 e3 d7 3d 02 53 31 be 16 d4 9b be
       0.026974037 0.105414055 -0.17316821 -0.30435246
000220 a7 82 91 3c 00 6a 0b 3e a3 b2 16 3e d8 b3 a7 3d
       0.017762495 0.13614655 0.14716582 0.08188599
000230 9f 8f 8e bd b1 59 b7 bc 5c e8 3d 3e 37 4d ed bb
       -0.06960987 -0.022381635 0.1854567 -0.0072418707
000240 08 1f 7c 3d 80 bb 99 bc 49 00 4a 3d a7 11 db 3d
       0.06155303 -0.018766165 0.04931668 0.10696726
000250 92 29 1e be dd 38 02 bc 8e 86 43 3c 44 85 33 be
       -0.15445545 -0.007948128 0.011933936 -0.17531306
000260 45 98 25 3e 98 e2 79 be 78 74 18 bd 53 15 c3 3d
       0.16171367 -0.24402845 -0.03722045 0.09525552
000270 6c 42 9f bd 26 58 7f be e2 a5 69 be ea bf 23 3d
       -0.07776341 -0.2493597 -0.22817186 0.039977945
000280 8d ca 79 be 0c 55 76 be 94 ce 0c be 05 c4 82 be
       -0.24393673 -0.2405588 -0.13750678 -0.25540176
000290 57 9f ab 3c 00 80 1a be 90 5f 03 3e 2a b4 b0 bd
       0.020950003 -0.1508789 0.12829423 -0.086281136
0002a0 a9 51 d9 3d dc fa c6 3b 6e 04 61 be 49 87 0f bd
       0.106112786 0.0060723852 -0.21974346 -0.035041127
0002b0 fe e9 9c 3d b2 ca 37 be 7e d5 ae bd 0d 9d ad 3d
       0.07661818 -0.17948416 -0.08536814 0.08477221
0002c0 71 e5 b1 3b 7d 54 9d 3d a5 52 d1 bd ff 87 0a be
       0.005428963 0.076821305 -0.10220841 -0.13528441
0002d0 8d 51 58 be 7b 3c 08 3e b2 b6 d7 3d c5 11 14 bd
       -0.21124859 0.13304321 0.10532893 -0.03614976
0002e0 7e f4 a3 bd 69 87 e1 bd b2 78 d9 3d 58 6f 24 be
       -0.080056176 -0.110121556 0.10618724 -0.160581
0002f0 db bd 87 3d a6 8f bb 3d cf da 82 bd 34 03 57 3e
       0.06628009 0.09158258 -0.06389391 0.20997316
000300 37 3b a6 bd 54 3b de bd e9 6c 35 3e 7e 64 93 3e
       -0.08116763 -0.1085116 0.17717327 0.28787607
000310 fe 70 ac bd 67 0f 3e be b0 5a 72 3c 67 4b 0f 3d
       -0.08419989 -0.18560563 0.014792129 0.03498402
000320 d8 43 9a bc 95 b1 fd 3c f5 04 58 3e ce be 1e be
       -0.018831179 0.030968467 0.21095641 -0.15502474
000330 23 df ee 3c b5 56 4c 3e 84 42 5e b9 a5 16 b3 bd
       0.029159134 0.19954951 -0.00021196349 -0.087445535
000340 3d bd 64 3d 61 16 b2 3d 86 a8 8d 3e 9d 8b b7 3e
       0.055844534 0.08695675 0.27667636 0.35848704
000350 86 9c b8 bd 67 6e 5f bc d4 97 17 be e8 fc 2a bd
       -0.090142295 -0.013637162 -0.14804012 -0.041745096
000360 c0 8d 28 3b ac 4c c1 3d ff 94 d6 bd 91 89 55 3e
       0.0025719255 0.09438452 -0.104776375 0.20853259
000370 99 8b 46 3e f7 c8 f2 bd af 94 f0 bd 5a a3 8d be
       0.1938919 -0.11854737 -0.11747109 -0.2766369
000380 10 cc 0d 3c 1f 9a 7c 3c 30 4e 66 be a7 34 7e 3e
       0.008654609 0.015417605 -0.22490764 0.24824773
000390 8f 7c 1d be 35 ac 6b be 8a 96 8b bd 43 4d 1b be
       -0.15379547 -0.2301491 -0.068158224 -0.15166192
0003a0 32 13 8d be 48 62 61 3e e8 e5 9c bd 9a 38 c8 3e
       -0.27553707 0.22010148 -0.07661039 0.39105684
0003b0 e1 56 65 be b2 b4 66 be e3 50 21 be e6 b8 b9 bd
       -0.22396423 -0.22529867 -0.15753512 -0.0906847
0003c0 a3 85 36 3d 78 47 0b 3e b8 43 a0 3d 70 78 55 3e
       0.04456104 0.13601482 0.07825416 0.20846725
0003d0 c7 7d 00 3e f5 44 83 3d 35 3b 02 3e f5 f9 5b 3e
       0.1254798 0.06409637 0.12717898 0.2148207
0003e0 80 49 0a bb 11 51 bc 3d 8a e9 71 be ad 4c d1 bd
       -0.0021100938 0.0919515 -0.23624244 -0.10219703
0003f0 17 1d 39 bd 55 fc 35 bd 05 a4 5c be f1 af f7 bd
       -0.045193758 -0.044430096 -0.21546943 -0.12094105

sequential/dense_1/MatMul f4 [32, 64]
000000 d6 02 ca bd 3b 70 87 3d 72 19 51 bd 87 c2 85 bd
       -0.09863822 0.06613203 -0.051049657 -0.06531244
000010 50 55 1e be 8f c1 22 be 70 85 d0 bd a0 0c 60 bd
       -0.15462232 -0.15894149 -0.10181701 -0.05469954
000020 93 4f 4c 3e 85 2c 84 3d 2e 08 39 bc ad d2 c8 3a
       0.1995223 0.06453804 -0.011293454 0.0015321575
000030 a5 ca 18 be c6 cc e1 3d 80 ff 2c be 2a 40 83 be
       -0.14921053 0.110253856 -0.1689434 -0.2563489
000040 86 ac 4d 3e 5c d4 62 3d ec b3 e1 3d b8 9c 9f 3c
       0.20085344 0.055378303 0.110206455 0.019483909
000050 bf e9 64 be 60 e3 d7 3b 02 cb f8 bd e3 93 83 3e
       -0.22354792 0.0065883845 -0.12148096 0.25698766
000060 24 a7 21 be f4 76 f8 3d 6a 84 1c 3d 21 83 97 3c
       -0.15786415 0.121320635 0.038212217 0.018495144
000070 f6 b7 95 bd cf 93 8b bd 3b fb 3f 3d 9c b7 4e be
       -0.073104784 -0.068153016 0.04687045 -0.20187229
000080 11 97 c7 3d 3d 08 79 3e f3 3f 7a 3e 43 80 66 3d
       0.097456105 0.24319549 0.24438457 0.056274664
000090 07 65 12 be 09 c6 95 3e 94 c4 c9 3d 05 c2 0c 3e
       -0.14296351 0.2925265 0.098519474 0.13745888
0000a0 7a eb 8e be 43 e8 d8 3e 34 89 23 3d 43 d0 02 3d
       -0.2791403 0.42364702 0.03992577 0.031936895
0000b0 44 11 9b bc 61 58 88 bd 45 16 42 bd 38 3f f9 bd
       -0.018929131 -0.06657482 -0.04738452 -0.12170261
0000c0 9b 79 ac bd e8 69 97 3e 03 55 61 be 0e e5 c4 3d
       -0.08421632 0.29572988 -0.22005086 0.09614001
0000d0 06 8a 9d 3e 28 da 7d 3e 47 5e 95 3e 52 93 3a bc
       0.30769366 0.24790251 0.2917349 -0.011387663
0000e0 c0 4d 2c 3e 8f 74 96 bc ec b7 e2 3d c4 bf 94 bd
       0.16826534 -0.018366126 0.110702366 -0.07263139
0000f0 fa 96 af 3e 85 50 39 bd dd 25 10 be 15 ce 89 3e
       0.34294873 -0.045242805 -0.14076944 0.2691504
000100 5f af d4 3d 61 ec 53 be 5e 07 2c bc 17 b8 49 bd
       0.10385012 -0.2069564 -0.010499803 -0.049247827
000110 b3 11 5e 3e 4e 9c c4 bb ea ab 32 3e 6f 3c ab 3d
       0.21686439 -0.0060000783 0.17448393 0.08361136
000120 8f f6 7f be 06 83 7a 3e 73 5e c9 3d b5 d5 80 3e
       -0.24996398 0.24464044 0.09832468 0.25163046
000130 99 fe 9e 3e 48 94 2d 3d c5 a4 8b 3c e5 64 18 3e
       0.31053618 0.04237774 0.017046342 0.14882238
000140 40 60 13 3e e0 b9 72 3b 05 c5 01 bc 50 ce 9b bd
       0.14392185 0.003703706 -0.007920508 -0.0760771
000150 fd 04 b1 3e c3 69 80 3d c0 fe 5f 3e 96 4d 37 3e
       0.34574118 0.062701724 0.21874523 0.1790069
000160 e4 31 45 3d f4 7a 0e be f3 b4 ba 3e c2 a4 4e 3e
       0.048143283 -0.1391409 0.36466178 0.20180038
000170 77 60 16 be 0e 38 c8 bd b3 c4 52 3d 4d 5e 6c 3e
       -0.14685236 -0.097763166 0.05145712 0.23082848
000180 a0 42 6b 3e f4 01 51 3d 06 5b 1b 3e f2 5c 2d 3d
       0.22974634 0.051027253 0.15171441 0.042324968
000190 89 94 64 3c f7 e8 01 be 49 77 cd bd c9 05 57 3e
       0.013951429 -0.12686525 -0.100325175 0.209983
0001a0 fc 2f c4 3d 02 80 f0 3d bd 5d 63 3c f5 38 a5 bd
       0.09579465 0.117431656 0.013877329 -0.08067504
0001b0 db 09 97 3e 0d 5c df bc 7b be 86 3e 48 24 91 3e
       0.29499707 -0.027265573 0.263172 0.28347993
0001c0 9e e4 69 be 8d 8f 95 bb c2 aa a5 3e 5d a9 35 3d
       -0.22841117 -0.0045642317 0.3235684 0.04435097
0001d0 35 cc e2 3d 7e 91 a4 be ba 6a 89 3d 3a 95 71 be
       0.11074106 -0.32142252 0.067098096 -0.23592082
0001e0 67 ae 25 3e b4 11 e6 3c bc 91 1f 3d 24 51 9a bd
       0.1617981 0.028084613 0.038957343 -0.075350076
0001f0 54 f9 4d 3e bd f5 03 3e de 8f 47 bd d0 e1 bb 3a
       0.20114642 0.1288671 -0.048721187 0.0014334265
000200 cd a2 df 3d dd 43 21 3e fa e2 c9 3d 4b b6 90 3e
       0.10919724 0.15748544 0.098577455 0.28264078
000210 fd cb 66 3d d6 30 25 3e d2 92 d0 3d d3 b4 aa 3e
       0.056346882 0.1613191 0.10184254 0.33341083
000220 0d 9f 6d 3d 72 96 b4 bd 87 b5 bd bb d1 91 88 3e
       0.05801301 -0.08817758 -0.005789462 0.2667375
000230 bc 90 65 3e 02 f2 34 3d 47 a0 84 be a9 d1 b0 bd
       0.22418493 0.04417611 -0.25903532 -0.086337395
000240 92 e8 27 be f1 11 4c 3d 2d 43 7f bd 8f af 3d 3e
       -0.16397312 0.049821798 -0.062319923 0.18524002
000250 cc f6 4b 3e ba 27 97 3e e1 43 2d 3c bd 7e 95 be
       0.19918364 0.29522496 0.010575266 -0.29198256
000260 90 e5 d1 3e 65 e9 15 be 28 09 cc 3e 64 fa 7f bd
       0.40995455 -0.14639814 0.39850736 -0.06249465
000270 49 22 9b bd 09 59 8c be d6 cc 0f 3d a0 52 2e 3e
       -0.07574899 -0.27411678 0.035107456 0.17023706
000280 a8 1c 33 bc 43 21 68 3e 97 bb de bc a1 1a 5c be
       -0.010932125 0.22668938 -0.02718906 -0.21494533
000290 88 ed 14 3d 5a 83 e4 bb 59 31 a2 bd c0 df 5d 3e
       0.03635934 -0.006973666 -0.079195686 0.21667385
0002a0 56 99 46 3e d3 1f 6e 3e 5a e5 87 3e 4f 6e 7f 3e
       0.1939443 0.23254327 0.2654217 0.24944423
0002b0 b4 fb 0d 3d 59 28 d5 3c 6b 4b 8d be 52 00 8d be
       0.03466387 0.026020216 -0.27596602 -0.27539307
0002c0 83 86 e6 bd 45 1e 05 3e d5 97 5e 3e f0 b4 d5 3d
       -0.11256125 0.12999828 0.21737607 0.10434902
0002d0 76 fe 20 bd 0f c2 40 bc 2c d0 b7 bb 08 9a 17 be
       -0.039305173 -0.011765017 -0.005609533 -0.14804852
0002e0 7d ac 03 3d 43 8b 3a 3e 0a 4c 14 be 86 cf 0a bd
       0.03214692 0.18217187 -0.14482132 -0.033889316
0002f0 8b 07 a4 3d 76 ec 38 be f3 9a bc bd 2c e0 df bd
       0.08009251 -0.18058953 -0.09209242 -0.10931429
000300 d0 a2 7c 3a 3d 57 89 3c ba 27 50 3e 85 a6 df 3e
       0.0009637298 0.016765231 0.20327654 0.43681732
000310 82 69 36 bd aa 43 9d 3e 21 98 89 be cd d8 4e 3e
       -0.044534214 0.30715686 -0.26873878 0.2019989
000320 a9 be b2 3c e7 58 66 3e 52 92 8b be 91 91 1c 3d
       0.02181943 0.22494851 -0.2726007 0.03822476
000330 10 a6 9b 3c e4 35 4a bd 11 ac f7 3d 6e 9e b6 bd
       0.019000083 -0.0493678 0.12093366 -0.08916937
000340 2e 7a f7 bd cb 86 d5 3d ad 1c 4c be 1d 30 59 3e
       -0.12083851 0.104261 -0.19932814 0.2120976
000350 86 67 41 3e bd 73 c7 bc ce df cf bd f2 3f 39 be
       0.18887147 -0.02434718 -0.10150109 -0.180908
000360 6c 37 90 be 9a d2 b3 bd c5 9f 41 be c3 b7 a1 3e
       -0.28167284 -0.087804034 -0.18908603 0.31585512
000370 a5 62 97 3d 53 93 0e bd 09 b9 05 3b 10 2b dc 3c
       0.07391862 -0.034808468 0.002040448 0.026876003
000380 4c 8e b0 3d 49 d5 6a 3e 22 22 41 3d 28 86 7f be
       0.08620891 0.22932924 0.047151692 -0.2495352
000390 73 64 a0 3d e7 ea 61 bd 18 8e 44 3e 4d 05 16 be
       0.07831659 -0.05515566 0.1919483 -0.1465046
0003a0 61 79 cd 3c 8b 60 6e be 81 56 ee bd 73 29 cc 3a
       0.025082292 -0.23279016 -0.11637593 0.0015576318
0003b0 a6 88 6a 3e 5d f8 55 be d8 82 18 3e de 3a bb 3d
       0.2290369 -0.20895524 0.14893663 0.091420874
0003c0 ba 7b bf 3b 14 79 19 bd cb 6a 6d bd b0 8d 3f 3e
       0.005843607 -0.037468985 -0.057963174 0.18706393
0003d0 57 bd 72 3e ed c7 19 be 4c 29 10 bd c7 9a 6d bd
       0.2370504 -0.15017672 -0.035195634 -0.058008935
0003e0 e7 ef 31 bd 58 fb 96 bc a5 3a f8 3d 4b f0 eb bd
       -0.04344168 -0.018430397 0.121205606 -0.115204416
0003f0 17 41 57 be 07 17 52 3e ec b4 51 be e5 da 31 bd
       -0.21020924 0.20516597 -0.20479172 -0.043421645

sequential/dense_2/MatMul f4 [10, 32]
000000 c6 7d a6 3e 9d 0e 58 3e aa 8a 90 3e 5d 67 8e be
       0.32517833 0.21099325 0.28230792 -0.27813235
000010 68 9a 99 3d ce 3b aa bd ec 09 d1 3e a9 99 ec be
       0.07500154 -0.08312188 0.40827882 -0.46210983
000020 8a 13 e2 be ea b0 af be 0a c1 3f 3e 68 95 dd be
       -0.44155532 -0.34314662 0.18725982 -0.4327805
000030 7f ed a1 be 4e d0 18 3e 85 3c b0 bd b7 70 cc 3e
       -0.31626508 0.14923212 -0.08605293 0.39929745
000040 c5 3b a3 ba e9 ab 59 bd d1 4b 89 be d4 ce 3e be
       -0.0012453726 -0.053142462 -0.26815656 -0.18633586
000050 91 26 c6 be 87 3f 0d be e2 d6 67 bd 01 06 d8 bd
       -0.387013 -0.13793765 -0.056601413 -0.1054802
000060 a4 27 6d be 04 cd cf bd 83 51 ee 3d 74 44 3c be
       -0.23159653 -0.101465255 0.11636641 -0.18385488
000070 93 c5 87 3c 38 8b 92 be e8 ed 51 bd 12 57 ed 3e
       0.016573703 -0.2862184 -0.051252276 0.46355492
000080 d4 3b 80 3e 26 19 8f 3e aa 6f 80 3e c8 ca 1a bf
       0.25045645 0.27948874 0.25085193 -0.6046567
000090 87 93 c3 bc 0c db a1 be 28 5a 00 3e e3 4c 36 3d
       -0.023874057 -0.31612432 0.12534392 0.04450692
0000a0 0f 4c b5 3e 41 7e 87 be 00 c3 58 be 38 44 92 3e
       0.3540959 -0.26463512 -0.21168137 0.28567672
0000b0 fe 01 03 bf ec ae d4 3e 57 e8 7c be f2 ec bf be
       -0.51174915 0.41539705 -0.24698006 -0.37485462
0000c0 0f 00 3b 3e 3f ce aa bd 6c ba 81 be bf ff 41 3d
       0.18261741 -0.083401196 -0.2533754 0.04736304
0000d0 25 ac 22 bd 0e 74 09 3e df 0b bd 3d cd 81 ac be
       -0.03971495 0.13423178 0.0923078 -0.3369278
0000e0 b1 fa aa 3e 31 ee e6 be 6a c2 3f 3c c9 71 bd be
       0.33394387 -0.451036 0.011704067 -0.37000874
0000f0 9c da ac bc e8 0a fc be 53 ab 1e be 0d bf 81 be
       -0.021100335 -0.4922707 -0.15495043 -0.25341073
000100 68 ac 92 3e 9d ec 5b 3e f3 04 e4 be 35 d9 78 be
       0.2864716 0.2147698 -0.44535026 -0.24301608
000110 b6 fd 90 3e b9 c7 50 3e c4 7b 59 3d 15 cd ba be
       0.28318566 0.20388688 0.053096548 -0.3648459
000120 71 be 91 be 2a bd 12 be f1 ce 41 3e 68 cb 16 be
       -0.28465608 -0.14329973 0.18926598 -0.14726031
000130 37 59 91 bd 2e 22 23 3e c2 09 98 3e 51 45 1b bf
       -0.070970945 0.15931007 0.29694945 -0.60652643
000140 93 f8 c0 3b 01 b8 9d 3e 38 19 d6 be 2f 22 b8 3e
       0.0058890074 0.30804446 -0.41816115 0.3596358
000150 cf 46 d3 bd ff 03 e2 3e 0d dd aa be 34 c3 7b be
       -0.1031624 0.44143674 -0.33371773 -0.24586183
000160 39 73 4d 3d 07 9b 18 be 46 3d 9f 3d 75 c8 a2 3e
       0.050158713 -0.14902888 0.07775359 0.31793562
000170 cf 29 ec bd 95 a8 ae be eb e5 3d 3d 2e 0e 89 3e
       -0.11531412 -0.34112993 0.046361845 0.2676863
000180 e4 e4 21 3e f6 df 65 be 22 3f ff bd 20 b9 a6 3d
       0.15809971 -0.22448716 -0.124632135 0.081407785
000190 fd 57 a3 3e 61 27 e7 3c fa 4e a6 3e dd 0a 89 be
       0.31903067 0.02821702 0.3248213 -0.267661
0001a0 ea 93 ff bd 8b 4c 1e be f6 ec d6 3e 6f b7 4c be
       -0.12479384 -0.15458886 0.41977662 -0.1999185
0001b0 98 ee 84 be 0d 2c a3 be c5 25 95 bc e8 26 58 be
       -0.25963283 -0.31869546 -0.018206486 -0.21108592
0001c0 5b 30 ba be 98 d0 53 be 2e 3f 9c be 8e fd 50 3e
       -0.36365017 -0.20685041 -0.30516952 0.20409223
0001d0 64 35 7e 3e 08 57 01 be e2 ce 10 3e d7 8a 28 be
       0.24825054 -0.12630856 0.1414142 -0.16459213
0001e0 91 62 2c bd 50 90 25 be 49 ad c9 bd 84 db 53 3e
       -0.042086188 -0.16168332 -0.09847505 0.20689207
0001f0 b3 68 20 3d 9e 82 0c bd bf fb 93 be 0a ff 87 be
       0.03916235 -0.034304254 -0.28903005 -0.26561767
000200 b6 4f 57 be e8 f5 b2 3e be c1 7f be 5b 64 89 bd
       -0.21026501 0.34953237 -0.2497625 -0.067085944
000210 be 9d 00 be ec fb 31 3e 5e e3 16 be f6 c7 97 be
       -0.12560174 0.17381257 -0.14735171 -0.29644746
000220 3f d5 f3 3d 6e 7e ea 3d 45 34 b7 be 82 19 cc 3b
       0.11905908 0.11449896 -0.35782066 0.0062286267
000230 97 13 5e be c0 11 73 be b4 43 82 3d e6 ec 59 3d
       -0.2168716 -0.2373724 0.063605696 0.05320444
000240 2a 24 17 3e 0c 20 3c be 51 f7 14 be de 08 e1 bd
       0.14759889 -0.183716 -0.14547469 -0.109880194
000250 c0 21 90 be 52 87 00 3f 49 63 37 be e6 d1 ff be
       -0.2815075 0.5020648 -0.17908968 -0.49964827
000260 45 3b 5f 3e 0c 2f e1 3e b1 ef c7 3e aa cd a9 bd
       0.21799953 0.43981206 0.39050058 -0.082911804
000270 ed a9 63 be 46 cd 02 3e 58 78 96 be ee 08 ab bd
       -0.2223279 0.12773618 -0.2938869 -0.083513126
000280 f4 3b db be 24 90 c3 3e e2 41 59 3e c3 b7 b7 bd
       -0.42819178 0.38195908 0.21216539 -0.08970597
000290 67 98 83 3e a7 e7 16 be 02 6b b7 bc c1 38 bb bd
       0.2570221 -0.14736806 -0.022389892 -0.09141684
0002a0 77 95 3e be a6 f2 ce 3d 04 bd c2 3e 22 e1 4e be
       -0.18611704 0.10104875 0.38034832 -0.20203069
0002b0 3c bf 84 3e 36 67 c8 bd 3a 92 34 be a6 a8 84 3e
       0.2592715 -0.09785311 -0.17633906 0.2590992
0002c0 91 45 82 bd b6 fd b4 3d 03 dc 32 3d ac 72 c1 3d
       -0.06360925 0.08837454 0.04366685 0.094457
0002d0 89 79 a3 be 64 e6 b1 be 30 ff b6 3e 2d e0 00 be
       -0.3192866 -0.34746087 0.35741568 -0.12585516
0002e0 37 81 80 be 19 74 aa bd da c9 f4 bd cb 32 9a be
       -0.25098583 -0.08322925 -0.11952563 -0.30116877
0002f0 cb 4d a7 bc 95 3c d9 be 96 b6 16 be 33 9d bb be
       -0.020422837 -0.42429033 -0.14718089 -0.3664337
000300 4f 0f 3a be f4 6d a9 3e 29 b9 62 3e 17 d9 12 3e
       -0.18169902 0.330917 0.22140945 0.14340626
000310 b9 50 ba be a2 54 b2 3e 6a fc 88 3d 9c dc ba be
       -0.36389711 0.34830195 0.06688769 -0.36496437
000320 a1 ee c0 3c 8b f6 8e be 19 1f df be 69 d6 ba 3d
       0.023551287 -0.27922472 -0.43578413 0.09122927
000330 00 94 0d 3e 99 b9 88 be 2b 98 a3 3e 21 90 52 3c
       0.13825989 -0.267041 0.31952032 0.012851746
000340 a8 9b 18 3e 27 8d b0 3e 86 be 1a 3e 89 5d fb bd
       0.14903128 0.3448269 0.15111741 -0.122737
000350 3c a1 86 3e 4c 57 ea bd fc 25 c8 bd 31 0b 84 bc
       0.26294887 -0.11442432 -0.0977287 -0.016118618
000360 e3 45 0f bf 59 1c ea 3d a1 0a 52 be 12 f7 89 3e
       -0.55966014 0.11431188 -0.20511867 0.26946312
000370 09 b3 a8 3e ad 68 61 bf 5f 9b c9 bc ff 87 1d 3e
       0.32949093 -0.8805035 -0.02461022 0.1538391
000380 5c 6a ab 3e 6a aa 06 be 93 6c 63 bd b2 c2 22 bf
       0.33479583 -0.13150945 -0.055523466 -0.6357833
000390 3e 7c 7f bd 80 7d 2b 3e ff 3d a7 be ee ae d4 3e
       -0.062374346 0.16747093 -0.32664487 0.4153971
0003a0 39 83 11 bd ff ee 4e 3e f8 7b 7f 3e 95 51 42 be
       -0.035525534 0.20208357 0.24949634 -0.18976434
0003b0 b0 85 8e 3e 78 37 48 3e f5 e1 92 3e 72 9b 82 3e
       0.2783637 0.1955241 0.28688017 0.2550922
0003c0 c6 8e 1f 3e 74 a1 85 3e d1 31 73 3e fd 6e 08 bd
       0.15581807 0.2609974 0.23749472 -0.03330897
0003d0 07 d8 9f be f6 ab 0a 3e 47 f9 86 be cf 9a 82 be
       -0.31219503 0.1354216 -0.2636206 -0.25508735
0003e0 0d ba 3d 3d 9e b4 e6 bd 79 b0 7b be 15 99 ab 3e
       0.04632001 -0.11264919 -0.24579038 0.3351523
0003f0 70 ab ad be 7e ab ac be 7e 64 b4 be 0b bf bc 3c
       -0.3391986 -0.33724588 -0.3523292 0.023040315

sequential/conv2d/Conv2D f4 [64, 3, 3, 1]
000000 ed 90 3d 3e 6e f7 a1 3d 70 24 65 be 24 2e 00 3e
       0.18512316 0.079085216 -0.22377181 0.12517601
000010 10 7b 1e 3e cd c4 a9 be 96 8c 32 3e f5 8d 4e 3e
       0.15476632 -0.3315796 0.17436442 0.2017134
000020 e1 c2 cd be 7b e0 0d 3e 04 d2 ce bc 75 9f d5 be
       -0.40187743 0.13855164 -0.025246628 -0.4172322
000030 1f 7b 57 be c9 9c d1 be f7 cc d5 be 56 a8 cf be
       -0.2104306 -0.4093993 -0.41757938 -0.40558118
000040 1b 8f 24 be 01 6c 16 bc 41 6e 02 be 45 01 47 bb
       -0.16070215 -0.009181024 -0.12737371 -0.0030365747
000050 43 fb 56 be aa ff d5 3c d3 5b 9f 3d 20 60 02 3e
       -0.20994286 0.026122887 0.07781186 0.12731981
000060 c3 80 40 3c 68 80 8e bc e2 8a 33 3e 71 cc f1 3c
       0.011749449 -0.017395213 0.17533448 0.02951643
000070 62 42 26 3d c9 b5 8f 3d ae 28 c1 bd 92 8b b6 b8
       0.04059065 0.07017095 -0.09431587 -8.704433e-05
000080 87 41 c0 3d 1f 7f 63 be 70 57 bd 3d 74 f9 b5 3d
       0.09387498 -0.22216462 0.09245193 0.0888547
000090 79 06 64 3c e8 07 c4 bc 11 53 14 3e 42 a8 62 3d
       0.013917559 -0.023929551 0.14484812 0.055336244
0000a0 d1 02 70 3d 59 6b 95 3d 98 31 9b 3c 05 68 ba bd
       0.058596436 0.072958656 0.018944547 -0.091018714
0000b0 3f cf 28 be cb 6d 88 3d f0 06 a1 3b c6 df 2a 3e
       -0.16485308 0.06661566 0.004914157 0.16686925
0000c0 9b b2 f8 3b 66 2c 2e 3c cf 70 c6 3d cd f9 55 bc
       0.007589651 0.010630703 0.09689485 -0.013060045
0000d0 69 8e 7a bd 39 b3 1c 3e 6b 3f fb bd ff 06 d2 be
       -0.06117097 0.15302743 -0.122679554 -0.41020963
0000e0 01 bd c4 bc 4b 2e f8 be 0c fe 88 be ba 72 53 3e
       -0.024015905 -0.4847282 -0.26756322 0.20649233
0000f0 cd f9 cb be e4 6a e7 3d 5e 0c 97 3e 1e da 12 3e
       -0.3983902 0.11299685 0.29501623 0.14341018
000100 6e 06 33 3d cc 6e 00 bf d4 e9 62 be 1b 1f 1d bf
       0.043707304 -0.5016906 -0.22159511 -0.6137559
000110 da 43 9e be 15 0b c7 be cb eb 00 be 82 6a 40 3e
       -0.30911142 -0.38875642 -0.12589948 0.1879063
000120 1d 90 b7 3b 62 06 6a 3d e6 ac fd bd 87 85 76 3d
       0.0056018964 0.057134993 -0.123864934 0.060185935
000130 00 ce 7c bd 7e 35 91 3c 5c cc 88 3d bb 93 84 3c
       -0.061719894 0.017725702 0.066796035 0.016183725
000140 e8 64 6a 3d 1d 95 3d 3d a4 e1 b1 3d 47 e8 50 bd
       0.057225138 0.046284784 0.08685616 -0.051002767
000150 c0 6b 9c bd 44 0d 52 3d ad 7d a3 3d 05 87 dc bc
       -0.07637739 0.051282182 0.07982955 -0.026919851
000160 92 85 c1 3d 89 19 20 3d 76 ab 60 3a a9 3c 47 ba
       0.09449305 0.039086852 0.00085704715 -0.00076002866
000170 11 be a3 bd 4c 43 9a 3c 46 73 d6 3d 69 e2 06 3e
       -0.07995237 0.018830918 0.104712054 0.13172306
000180 22 5d fa bc e0 ed d7 3d 94 e7 6a 3e f1 04 9d 3d
       -0.030561987 0.10543418 0.22939903 0.07666958
000190 20 78 03 3e a4 6c c1 3d 1a 05 b6 bd 5a c7 b5 3d
       0.12838793 0.0944455 -0.08887692 0.08875914
0001a0 09 ed 76 3d 5f ed 44 be 73 54 92 3d a9 37 e1 3d
       0.060284648 -0.19231175 0.07145014 0.109969445
0001b0 8f bd 3a 3d 28 7a 99 bd 22 a8 ff 3d 76 e2 33 3d
       0.045590933 -0.074940026 0.12483241 0.04391714
0001c0 e7 76 d4 3c 49 d9 47 3d 13 8a 42 3d 1a d8 39 bd
       0.025935603 0.048791204 0.04749496 -0.045372106
0001d0 26 a4 50 3d 21 86 4b be c3 7b a5 be e5 50 be be
       0.050937794 -0.19875385 -0.32320985 -0.37171093
0001e0 2a b4 4b be 7b 04 f1 bd 1e 29 d4 3d dc ca 30 3e
       -0.19892946 -0.11768433 0.10359405 0.17264885
0001f0 c1 81 25 3e 18 24 6a 3e fa 6e 7a 3e 3c f5 32 3e
       0.16162778 0.22865331 0.24456397 0.17476362
000200 eb f1 25 3e 69 8d 22 3d 56 91 b2 3d 21 b1 4b be
       0.16205566 0.03968564 0.08719127 -0.19891788
000210 10 d0 de be c8 1b ef be 35 13 c5 be fe 57 bc 3d
       -0.43518114 -0.46700883 -0.38491216 0.09196471
000220 d7 5e 7b 3d 2d 32 6d 3d ca 0c 1a 3d b9 d4 99 bc
       0.061369743 0.05790918 0.037609853 -0.018778192
000230 60 bd ba bc 5e 72 bf 3d d5 88 0a 3e 43 36 c0 bd
       -0.02279538 0.09347986 0.1352876 -0.093853496
000240 43 f4 89 bd e6 ec 45 be 40 e5 0c be 4c 0c 6d 3d
       -0.06736042 -0.19328651 -0.13759327 0.057873055
000250 39 bd 97 3a 9d 5e e7 3d 70 f1 08 3e 63 0c 04 3e
       0.0011576778 0.11297343 0.13373351 0.1289535
000260 e6 36 f4 3d 46 a0 8f bd 1d 0c ba 3c d5 9a 54 3e
       0.119245335 -0.070129916 0.022710854 0.20762189
000270 a9 d1 27 3d 88 6c 07 bd 1c f8 08 3e ab 09 68 bc
       0.040971432 -0.033062488 0.13375896 -0.014162461
000280 50 5d 9b bd 0a 6e 17 3e a4 7a 2f be dc 50 99 be
       -0.07586157 0.1478807 -0.17136627 -0.29944503
000290 31 5e 9b be 88 f6 eb 3d d5 13 10 be 59 9e 92 be
       -0.303453 0.115216315 -0.14070065 -0.28636435
0002a0 25 bf 97 3e f0 9a b8 3e 30 cd b3 3d 3e 96 69 3e
       0.2963802 0.36055708 0.08779371 0.22811219
0002b0 08 ca d9 3d 85 35 2a 3e 16 d9 c8 3d 34 8a 04 3e
       0.106342375 0.16621979 0.09807031 0.12943345
0002c0 e5 9c fd bb 88 a1 02 bf 4b 49 16 bf 28 b6 d2 be
       -0.0077396506 -0.5102773 -0.58705586 -0.411546
0002d0 65 7f 2d be e1 19 6d be bb 1e 1f bc ac 87 d6 be
       -0.16943128 -0.23154403 -0.009711917 -0.41900384
0002e0 15 00 21 be 15 68 a3 3e 47 4c df bd 06 53 71 3e
       -0.15722688 0.31915346 -0.109032206 0.23566827
0002f0 dd da 8b 3e 33 d1 8e 3d 72 69 0b bc 4c 76 63 3e
       0.27315417 0.06973495 -0.008509027 0.22213095
000300 7a 22 07 3d c0 70 5a b6 a8 9c 01 3e 74 01 11 bc
       0.032991864 -3.255016e-06 0.12657416 -0.008850444
000310 13 4b 3f 3d af 13 cf 3d 8d 70 1f be ed 23 0b be
       0.046702456 0.10111176 -0.15570278 -0.13587923
000320 ae 44 5b 3d 62 be 2e be 2a 1e be 3d 01 e0 1b 3e
       0.053532295 -0.17064813 0.09283097 0.1522217
000330 a0 ba b2 bd e9 92 f4 3d c3 fe 55 3e 59 67 eb 3c
       -0.08727002 0.119420834 0.20897965 0.028735803
000340 5e 56 5c 3d 72 20 14 3e 1c 16 09 3d ba 7a 51 bd
       0.053793304 0.14465502 0.03346835 -0.05114243
000350 58 9b 8b ba de 83 6d 3d 55 bf 19 bc db 39 28 3d
       -0.0010651154 0.057987086 -0.009383996 0.0410708
000360 b6 60 be 3d 68 0d 80 bd dd 76 d4 bb 5c 44 44 bd
       0.0929579 -0.06252557 -0.006483896 -0.047916755
000370 3e a7 0b bd f1 b1 f1 3d c7 59 c1 3c bc fe 83 bc
       -0.03409504 0.11801518 0.02360238 -0.016112678
000380 5b 25 43 3e b7 e3 81 3d a4 0d cb 3c b4 18 80 be
       0.19057219 0.06342261 0.024786778 -0.25018847
000390 9c 0e 84 3d d2 92 f6 3d d7 12 e0 bd 34 7e d0 bd
       0.06448099 0.120397225 -0.109410934 -0.10180321
0003a0 c7 d4 67 3e 05 ac be bc 70 d4 ff bd 23 45 8f 3d
       0.22639762 -0.023275385 -0.12491691 0.06995609
0003b0 b1 13 a4 3d 69 ec 40 bc 0c 53 c4 3d 61 2c 35 3e
       0.08011568 -0.011775115 0.095861524 0.1769271
0003c0 29 fc e9 3c 49 7f e7 3b 7e 77 4c bc cd 9c ca 3c
       0.028562622 0.007064734 -0.012479661 0.024732972
0003d0 db cb 6e bd e0 48 d6 3d 1b a6 7c 3d 90 f4 b1 bd
       -0.05829988 0.104631186 0.061681848 -0.08689225
0003e0 a5 9d 0b 3e 91 8c b3 3d e4 fb f3 3d bd 67 2a 3e
       0.13634355 0.08767045 0.11913279 0.16641136
0003f0 ce f9 ec bd b9 17 a5 3d e1 5d 0d 3e 9b 47 4f bd
       -0.11571084 0.08061165 0.13805343 -0.050605398

sequential/conv2d_1/Conv2D f4 [64, 3, 3, 64]
000000 fa da 90 3b b2 47 a4 3d c5 28 cd 3c 5a 55 c0 3d
       0.0044206353 0.08021487 0.025043854 0.093912795
000010 7d fe 69 3d ce 2c 8c 3d 35 cb 40 bc e9 2d 9f 3d
       0.057127465 0.06844483 -0.011767198 0.077724285
000020 32 47 64 3c fd f2 b2 3d 35 c4 43 3d 56 4e aa 3c
       0.01393299 0.087377526 0.04779454 0.020789307
000030 c0 c1 34 3d 8f 5a 5c 3c e1 36 06 ba 87 36 cd 3c
       0.044130087 0.013449325 -0.0005119872 0.025050415
000040 d3 51 ba bb cc 7b 6e 3c d4 fc 3e bc c7 be c4 bd
       -0.0056860237 0.014555883 -0.011656959 -0.096067004
000050 24 55 f2 3c 6e 1b 41 3d 88 b6 90 3d 8b 77 08 3d
       0.029581614 0.0471453 0.07066065 0.03331713
000060 30 10 76 3d 65 03 70 3d cf 8a aa 3d 80 54 fb 3d
       0.06007403 0.058596987 0.08327257 0.122719765
000070 9b bd 33 bc 7e 00 00 bd 84 22 c6 bd ea 81 15 bd
       -0.010970498 -0.03125047 -0.09674552 -0.03650085
000080 ff 1e 1f 3d 37 7f 0b bd 11 72 2d 3d b9 b1 fb bb
       0.03884792 -0.03405687 0.04234511 -0.0076810983
000090 21 98 34 3d 7a 8e b2 3c 94 83 93 bd 8f 00 94 3d
       0.044090394 0.021796454 -0.07202831 0.07226669
0000a0 48 91 ad 3b 49 fe 05 3e db 5d 1e 3d 80 51 fc 3c
       0.00529686 0.13085283 0.038663726 0.030800581
0000b0 01 75 1e be 6a 17 1a be d0 f3 90 bd be 9a d5 bb
       -0.15474321 -0.15047994 -0.070777535 -0.006518691
0000c0 f8 bf 6e bc 17 1c 10 3d ec 87 0c be a9 fc 76 3c
       -0.014572136 0.03518304 -0.13723725 0.015074887
0000d0 75 28 91 3c b8 46 11 bd c0 7d e8 bd da c9 6b bb
       0.017719487 -0.035467833 -0.1135211 -0.0035978467
0000e0 af 76 db 3d f2 12 b3 3d fc 9c bb 3d 54 95 1d 3c
       0.107159965 0.08743848 0.09160802 0.009618122
0000f0 2f 16 98 3c c4 20 a3 3c 98 06 a5 3d 65 69 ec 3c
       0.018565265 0.019913085 0.08057898 0.02885885
000100 47 e9 16 3e 76 a9 59 bd 80 09 8e 3c 15 1c 76 3d
       0.14737426 -0.053140126 0.017338514 0.060085375
000110 20 96 72 3d bd b4 b3 3d 51 e4 b9 bd b8 9e b8 bd
       0.0592252 0.087747075 -0.09076751 -0.09014648
000120 e5 d9 03 3d b6 e4 c2 3c df 07 24 bd b8 e8 d9 3d
       0.032190222 0.023790698 -0.04004657 0.10640091
000130 8f 27 e7 bc 8f 13 8a bd 0c ff e5 3b 1c 4a 9c 3d
       -0.028217105 -0.06742012 0.0070189293 0.07631323
000140 3b c5 04 3d 21 fa 12 bc f2 30 46 3d b2 6c 03 bd
       0.032414656 -0.008970768 0.04838652 -0.03208608
000150 ba b6 f1 bc ad 55 00 bb c7 54 88 bd 5a 17 5b 3d
       -0.029506076 -0.0019582317 -0.06656795 0.053489067
000160 89 2a d8 bc 1b ec 98 3c 0f 04 07 bd 63 ca 84 3c
       -0.02638747 0.018667271 -0.032962855 0.016209787
000170 d8 70 1e bd ee 80 10 3d 38 76 15 bd 66 c3 ba 3c
       -0.038681835 0.035279207 -0.036489695 0.022798251
000180 c7 18 6a bc 7b b2 6e bd d1 c4 98 bc 6f f0 24 3d
       -0.014288134 -0.05827568 -0.018648537 0.040268358
000190 49 a5 8d bc de a9 e1 3d 33 8f ad bd f5 7c dd 3d
       -0.017290728 0.11018728 -0.08474579 0.10814849
0001a0 0d 16 37 3d 8d 20 51 3d 47 ea 13 3e 92 36 94 bc
       0.044698764 0.051056433 0.14444838 -0.018092427
0001b0 13 58 13 bd 1a cc 39 3d 8e 3b 68 3d f6 e2 35 bc
       -0.035972666 0.045360662 0.05669742 -0.011101475
0001c0 9d 19 5c bb 6e 90 8d bd fa 4f 3b 3d 30 25 08 3d
       -0.0033584603 -0.069123134 0.04573057 0.03323859
0001d0 27 9f b1 bd 8f 9f 2c bd 52 85 e1 3c 7e 73 4b bd
       -0.08672934 -0.042144354 0.027529392 -0.04967069
0001e0 ba 89 5b 3d e4 d8 d9 3d af c8 38 3d 19 5b 82 bb
       0.053598143 0.10637072 0.04511326 -0.003978145
0001f0 51 d1 b2 3d a1 c6 98 3d 3c f9 b3 3d 5f 52 87 bc
       0.0873133 0.074597605 0.08787772 -0.01651877
000200 09 de f5 3d 55 1c c1 3d 9a 6c 29 be ea f2 a4 bd
       0.120052405 0.09429232 -0.16545334 -0.08054145
000210 6e 15 83 3c b6 e6 03 be 4d da 5b 3d cd 54 05 3e
       0.01600143 -0.12880978 0.053674985 0.1302063
000220 8f 5e a7 bd c4 3e b3 bc 73 be 86 bd 78 72 9c bd
       -0.081723325 -0.021880515 -0.06579294 -0.07639021
000230 c9 bc 0c be 16 fa 58 bd 2e 2a bf bc f8 a6 a0 3c
       -0.13743891 -0.052972876 -0.023335543 0.019610867
000240 58 31 d7 bd d3 5e 93 bd 8a 75 84 bc d5 6b 61 3d
       -0.105074584 -0.07195821 -0.016169328 0.055034477
000250 3c c7 15 be c9 d5 a0 bd 1b 40 c8 bd 98 72 0c bd
       -0.14626783 -0.07853276 -0.09777852 -0.034288973
000260 89 ec 81 bd a1 b5 ad bd b9 82 20 be b5 42 1b bd
       -0.063439436 -0.084819086 -0.15674867 -0.037905414
000270 1c 24 f5 bd 72 a8 c4 bd 92 25 e9 bc f0 16 9e bd
       -0.11969778 -0.09602441 -0.028460298 -0.07719219
000280 fc 5c 81 bd 28 f8 fe bd a6 a0 e5 bd 57 d7 4a bd
       -0.063165635 -0.12449676 -0.11212282 -0.04952177
000290 47 b5 d8 bd c8 8e db 3d 12 47 18 3e 75 11 05 bd
       -0.10581451 0.10720593 0.14870861 -0.03248735
0002a0 26 59 90 bc 59 82 20 bc 2f d9 14 3e 01 f3 b6 bd
       -0.017620634 -0.009796702 0.14535974 -0.08933068
0002b0 50 cd f0 bc f7 44 86 3d c4 c2 17 bc 66 d2 d9 bd
       -0.029394776 0.06556123 -0.009262744 -0.106358334
0002c0 1a 7a 03 bc ef 3c 9a bd d5 ff 86 bd f2 10 0f be
       -0.008024717 -0.075311534 -0.06591765 -0.13971308
0002d0 d1 d2 32 3d 96 c4 87 bd ef d0 00 bc 06 23 8d 3d
       0.04365808 -0.06629293 -0.007862314 0.06891446
0002e0 70 87 bf bd dc fa 84 bd 83 35 89 bd a6 38 20 bd
       -0.093520045 -0.0649316 -0.0669966 -0.039116524
0002f0 e2 19 4c bd 4a 66 53 bc dd 35 e2 bc 5f a3 3d be
       -0.04982937 -0.012902806 -0.027613575 -0.18519352
000300 a3 b1 6f 3d a7 de 06 bd c5 96 c0 3d db 95 19 3d
       0.058519017 -0.03292718 0.09403757 0.03749643
000310 da 7e 7f bc 4e 34 76 3c 10 db 7d 3d 59 34 be bd
       -0.015594209 0.015027119 0.061976492 -0.09287328
000320 4a d1 9b 3d 2e 1a 35 3c a3 67 66 3c 84 11 b5 3d
       0.07608278 0.011053605 0.014062795 0.088412315
000330 9f 8e 68 3d d5 d3 a5 bd ac 5f 00 be 92 82 72 bb
       0.05677664 -0.080970444 -0.12536496 -0.0037004096
000340 21 05 43 3d 2a 7c 11 bb ec e2 fd 3a 62 c6 13 be
       0.047612313 -0.0022199252 0.0019369996 -0.14431146
000350 bb 3c 33 3d 86 58 e6 3d d4 2f 69 3d 39 6b 88 3d
       0.04375909 0.11247353 0.056930378 0.06661076
000360 7d d2 8b 3d 44 2e 67 3c e7 18 d1 bc 85 be ef 3d
       0.06827257 0.014110152 -0.02552457 0.117062606
000370 7d 89 a3 3c c8 e9 c6 3d 82 d9 4d bd 83 b3 b7 bd
       0.01996302 0.09712559 -0.05025626 -0.08969786
000380 ee 9b ae 3d b2 d5 2e 3d 54 1b e8 bc 90 4a 00 3d
       0.08525835 0.042684264 -0.028333344 0.03132111
000390 b0 e3 e6 3c ee 14 c5 3b 3b 8a 34 be 8e 80 c0 3d
       0.028184742 0.006014458 -0.17630856 0.0939952
0003a0 5a 86 70 3d 98 1c d9 3c 45 44 b6 bd b0 7a b5 3a
       0.058721878 0.026502892 -0.0889974 0.0013845768
0003b0 bb 6f 26 bb 52 a5 33 be 91 85 7a bc dd fe 56 bd
       -0.0025396186 -0.17543533 -0.015290634 -0.05248915
0003c0 16 b2 b4 3d e8 99 72 3d d4 8b 03 be f3 43 ef bc
       0.0882303 0.059228808 -0.12846309 -0.029207205
0003d0 93 dc 82 3d 16 b9 ae bc 7b d3 93 bd a0 c0 ce bd
       0.063897274 -0.02132849 -0.07218071 -0.10095334
0003e0 99 70 a6 3d f8 24 70 3c 03 d5 c3 3d bd 9d 04 3e
       0.08126945 0.014657252 0.09562113 0.12950797
0003f0 a3 c2 2f 3d 05 c3 71 bd c3 3b c0 bb e5 d5 3a 3d
       0.04291023 -0.059023876 -0.005866499 0.045614142
